model.pth (torch, 3112 bytes, 7 tensors)

0.weight f4 [4, 2]
1.7449389 4.066718 0.14627586 0.40268996 0.60279906 -0.6618194 1.8096327 2.9564843
00000000: 285a df3f 8e22 8240 57c9 153e 612d ce3e
00000010: 0a51 1a3f ff6c 29bf 0ba2 e73f 0a37 3d40

0.bias f4 [4]
0.29052764 -0.6201386 -0.4792557 1.3164545
00000000: 0ac0 943e 67c1 1ebf 0161 f5be 9581 a83f

2.weight f4 [4, 4]
0.3770683 -0.2708106 0.08453399 -0.34722993 -0.22687568 -0.23716754 -0.4739251 -0.1505095
2.7759058 -0.35106945 -0.2569925 2.0199404 2.4592125 -0.3488987 -0.06965781 2.01705
00000000: 190f c13e b0a7 8abe 2820 ad3d 1fc8 b1be
00000010: 1952 68be 0cdc 72be 50a6 f2be 2a1f 1abe
00000020: 71a8 3140 60bf b3be 8594 83be b446 0140
00000030: bd63 1d40 daa2 b2be c1a8 8ebd 5917 0140

2.bias f4 [4]
-0.5438477 0.055256806 0.5174598 0.203614
00000000: 9a39 0bbf f654 623d 3f78 043f 3080 503e

4.weight f4 [4, 4]
0.1556066 -0.14702657 2.3666968 1.9888364 0.40809676 -0.004913427 1.889435 1.8228917
-0.25444743 -0.10956641 1.8016357 2.026422 -0.0040527284 0.3987886 1.8184938 1.8949188
00000000: 5657 1f3e 228e 16be f677 1740 3192 fe3f
00000010: 0ff2 d03e d000 a1bb 02d9 f13f 8454 e93f
00000020: ef46 82be 5b64 e0bd 009c e63f e6b0 0140
00000030: c0cc 84bb 052e cc3e 68c4 e83f b38c f23f

4.bias f4 [4]
0.9075858 0.5527429 1.1778187 0.8264319
00000000: 8b57 683f 8f80 0d3f c3c2 963f 0a91 533f

6.weight f4 [1, 4]
2.2401645 1.7241582 1.9202409 1.694604
00000000: db5e 0f40 37b1 dc3f 74ca f53f c9e8 d83f
